neural-networks/house-price/model.pt (torch_old, 132795 bytes, 5 tensors)

0.weight f4 [102, 270]
00000000: 0617 973f 09bb 54bf 0132 88be 1784 81bf
00000010: 5e11 6c3f 0164 f6be e57f 123f d171 0ac0
00000020: b46d b4bf 0b2f 89be f5cb 813f 2df7 adbe
00000030: 6b64 e4be 7eec 02bf c28e 7a3d 8dd1 27bf
00000040: eba7 1fbf 173d 8f3f 6381 9e3e e31c 0ebf
00000050: 21f2 903f 2feb bd3e b964 ac3e 114c c0be
00000060: 6757 0abe 4cc0 75bf 0ae8 4cbf 218d e0be
00000070: fbf2 3a3f 9b32 1a3e 1507 88bf 8e08 ff3e
00000080: 9ceb 11c0 4c87 b93f eca9 853e a30d 8dbe
00000090: 2d33 e7bf a09a 96bf 0cdc 963f b23e 06be
000000a0: b5da 85c0 48c5 523f fc47 673d e48d 6b3e
000000b0: 353b 04c0 3608 0140 5354 45bd c923 86c0
000000c0: 4d76 a1bf 8d44 a73f 2870 343d c946 18bf
000000d0: 6104 87c0 e827 98bf 3deb 813e 3523 c6bf
000000e0: 762d d53e a4a0 c23c b909 bdbf b816 053c
000000f0: d09a 97bc 3059 39c0 74fb 9f3e 44c0 c83e
00000100: 7587 9b3f f1c6 fdbd f429 593d 642c 143f
00000110: a67d 82bf 8d79 8ebe 7630 a1bf bce4 643f
00000120: b79b 86be 8a46 103f 1a3e e53c 3132 81c0
00000130: 1c30 38c0 ca1e 153f 9954 83bf bcec d5be
00000140: 3b21 b23f d490 07c0 c7c8 b0bf e26f 8cc0
00000150: 7195 59bf d07f 0dbb e0ce b43f cc92 033f
00000160: 412e 62c0 62fd 05bf 8db1 743f 258e 243e
00000170: 6a9e 60c0 bd55 50bf 4881 0c3d 99be c23d
00000180: 4f4a 5cbd 6891 84c0 b955 1abf d0f2 0f3f
00000190: 99e4 85bf b157 84c0 5204 0a3d abb7 eb3c
000001a0: 20b8 a03f 570c 873d 5611 ca3f 1814 87bb
000001b0: eb04 95bf 6f53 643f 8a82 c3bf 9b80 38bd
000001c0: d954 c3be 2208 74be 6bc9 8dbf 00f6 ed3c
000001d0: fb8f c73f ce65 e3be 0e9f ecbf 175b fabf
000001e0: 9e27 f4be 44fb eb3c c178 983f 052d 84c0
000001f0: cd7f b2be e107 39bf e647 55bf f76f 82c0
00000200: 178a 39c0 daa8 2ebd 5b63 dc3f db4e c63e
00000210: c1a0 253f bf88 35bf 90a1 a6bf 9e13 553e
00000220: 34d8 14c0 e7e9 e5be c3e3 2b3f acaa 04c0
00000230: 8e6a 41bf 9967 6e3e 78bd 3bbf a4ed 6b3e
00000240: 25e5 85c0 9ba5 50bf e9f8 9a3e 5308 adbf
00000250: 8ed8 7bbf 7a42 e6bf d9d8 f63e 8c4f 01c0
00000260: 321f 27bf 0b9d 39c0 c4f3 973e 7de1 b3bf
00000270: 788a ebbf 57a3 213e b000 ba3e 36de 1a3f
00000280: b546 87c0 2f2c 09bd 530e 11bf 070d 803f
00000290: 2131 5fc0 c74d c33a c22e 113f 2dfe eb3c
000002a0: d44a ee3c c815 99bf 5653 f2be 00ec b6be
000002b0: 87bb 123f 4c2a 69bd 806f c03e 32ab 073e
000002c0: 270d a33e 221c 0fbf d225 76c0 409b 053d
000002d0: 1fa5 b43f f30a 993f 2e62 84be 84a0 31be
000002e0: c14f f63e 4082 0ebe 8ea5 5f3f 301f 0dbe
000002f0: 68c3 99bf b014 92bf 5222 433f 34f6 23be
00000300: 13eb 94bf 36d7 6ebf d2fc cdbe c037 55bf
00000310: 4f69 3abe 5e25 25be ac8f 1ebe 2f32 33bf
00000320: 5d18 84be 9a95 e4bd 8d98 4bbe 46f1 14be
00000330: d58b 0fbf c207 7e3f ad6d 82bf 5396 3bbe
00000340: eda5 5cbf 5e4a 663d 892c 6fbe 639a 2c3f
00000350: ff3b 51be 547d bebe f1f3 19bd 04b5 a23f
00000360: 28aa 583c ef2b 1abf 80ac 82bf c801 87c0
00000370: 380f 3abe e527 09c0 d349 6d3e 1cd8 ef3e
00000380: 9c6c 953d 8e7d 85c0 7626 9abf db3f 873e
00000390: 3124 703e c289 00bf ceaf 3b3e 3000 a5be
000003a0: ed5d 87c0 7c6c 9dbe abd9 b9be c7be dbbf
000003b0: b49e 5a3e 0da4 7e3f 41cf 23bf a814 aabe
000003c0: 1fa8 2c3f 9987 2abf 26c5 31bf d106 ba3e
000003d0: 5e04 99bf dcbb 853e 9669 34bf b9d0 f8bf
000003e0: acf6 713e 7bcc f6be f2ef 4e3f e28c 2bbf
000003f0: 7340 063f 6b26 9bbe f69f 91bc 7f78 a3bf
1.1803901 -0.83097893 -0.2660065 -1.0118436 0.92214 -0.48123172 0.572264 -2.1631968
-1.4095979 -0.26793703 1.0140368 -0.33977643 -0.44607863 -0.5114211 0.0611713 -0.65554124
-0.623656 1.1190518 0.3095809 -0.5551283 1.1323892 0.37093493 0.33670595 -0.37558034
-0.13509904 -0.95996547 -0.80041564 -0.43857673 0.7302701 0.15058367 -1.0627161 0.49811214
-2.2800055 1.4494414 0.26106203 -0.27549466 -1.8062493 -1.1765938 1.1785903 -0.13109854
-4.1829476 0.8233228 0.056465134 0.23003346 -2.0661137 2.0161262 -0.04817612 -4.1918683
-1.2614228 1.3067795 0.044052273 -0.5948301 -4.2192845 -1.1887178 0.25374785 -1.5479494
0.41636246 0.02375824 -1.4768592 0.008123092 -0.018506438 -2.8960686 0.3124653 0.39209187
1.2150713 -0.12391461 0.053018525 0.57880235 -1.0194595 -0.2782711 -1.2592914 0.8941152
-0.26290676 0.56357634 0.027983714 -4.037377 -2.8779364 0.58250105 -1.0260192 -0.41782176
1.3916391 -2.1182146 -1.3811272 -4.3886576 -0.84993654 -0.0021591075 1.4125633 0.5139587
-3.534073 -0.52339756 0.9558342 0.16069849 -3.5096688 -0.81380826 0.03430298 0.0950901
-0.053781804 -4.14275 -0.6028705 0.5622988 -1.0460387 -4.1357045 0.033695526 0.028774103
1.255619 0.065941505 1.578654 -0.0041222684 -1.1642126 0.8918981 -1.5274212 -0.045044523
-0.3815067 -0.23831227 -1.1077093 0.029047966 1.5590814 -0.44413608 -1.848604 -1.9559048
-0.47686476 0.028806336 1.1911851 -4.1304955 -0.3486313 -0.7227765 -0.83312833 -4.0761676
-2.8990533 -0.0426415 1.7217821 0.38732037 0.64698416 -0.7091178 -1.3018055 0.20808265
-2.325696 -0.44905016 0.6714441 -2.072917 -0.75553215 0.23281707 -0.7333598 0.23039871
-4.1842217 -0.81502694 0.30268028 -1.3518165 -0.9837731 -1.7989037 0.48212317 -2.0204802
-0.65281975 -2.9002101 0.29678166 -1.4053189 -1.8401632 0.15784965 0.3632865 0.60495317
-4.227381 -0.033489402 -0.5666248 1.0003976 -3.4873736 0.0014900499 0.5671197 0.028807724
0.029088415 -1.1959772 -0.47329205 -0.3572693 0.57317394 -0.056925103 0.37585068 0.132489
0.31845972 -0.559023 -3.8460584 0.03261876 1.4112891 1.1956466 -0.25856155 -0.17346388
0.48107722 -0.13916874 0.8736199 -0.13781428 -1.2012758 -1.1412563 0.76224244 -0.16011888
-1.1634239 -0.93297136 -0.4023195 -0.8328819 -0.18204235 -0.16127536 -0.15484494 -0.6999845
-0.25799838 -0.11161347 -0.19882412 -0.14545164 -0.5607274 0.9923059 -1.018972 -0.18319063
-0.8619068 0.056223266 -0.23356833 0.67423075 -0.20433043 -0.37204993 -0.037586156 1.2711492
0.013224162 -0.6022329 -1.0208893 -4.2189674 -0.18169868 -2.14306 0.23172693 0.46844566
0.07296106 -4.1715765 -1.2042987 0.26415905 0.23451306 -0.502102 0.18328783 -0.32226706
-4.2302155 -0.3074683 -0.3629888 -1.7167596 0.21349603 0.9946907 -0.6398812 -0.33218884
0.6744403 -0.66613156 -0.6944145 0.36333326 -1.1954458 0.26119888 -0.7047361 -1.9438697
0.23629254 -0.4820288 0.8083488 -0.67011845 0.5244209 -0.30302748 -0.01777647 -1.2771147

0.bias f4 [102]
00000000: d56a 8540 c9f4 8240 9406 9840 bc8a f33f
00000010: c346 c13f 604b 6c40 c376 5640 98a3 cb40
00000020: 8d80 bc40 15ab b440 a483 8140 0e1e a440
00000030: b69a 9940 e202 b040 13a5 5e40 9609 8640
00000040: 7309 6740 2a53 8a40 c57f fd3f 1b3b a640
00000050: cd45 8d40 6606 5040 ab57 7640 913a 5440
00000060: 87d8 233d 13eb 9c40 16bd 9340 c259 9a40
00000070: 7431 fe3f 48bd 7440 2c97 7a40 ae85 1a40
00000080: a076 7640 ba9a b440 a0d4 e03f 0237 6c40
00000090: 0d09 8440 dc39 3740 84fd 7140 aafe 6940
000000a0: 32ff 7e40 fb05 8640 1896 2f3f 769c ba40
000000b0: 3e22 7b40 8efb 8540 ef3e 4d40 b05f 8640
000000c0: a540 6040 545e 7640 56a7 a340 b28f a440
000000d0: 1582 0340 3e99 c140 26ba 923f daaf ad3f
000000e0: 833a 2940 6d68 3540 c103 6240 a29f 6b40
000000f0: 35d7 b040 cfbd 8340 aa9b 8840 0dd2 b740
00000100: 5c5e 9640 1700 7440 a58f 2640 a018 ce3f
00000110: d19f 9440 4f8d ec3f e1ca 0240 c202 1240
00000120: bf67 4140 7f67 4a40 3b4a 7a40 ff20 a240
00000130: 8138 3140 eae9 8540 aec7 fd3f a37e a340
00000140: bf6e a440 b83d 7940 2afa fa3f 21bb 2f40
00000150: 1ba1 7240 3248 9d40 abfb 8340 38e1 9a40
00000160: d3f7 a740 a8c5 b140 5416 0540 8eae 9840
00000170: 1215 2c40 1e9e 7440 4c09 6540 990b f73f
00000180: 54b0 8840 eabd 3140 2a7c 1c40 7c49 9e40
00000190: b98b 1d40 7b72 8940
4.169291 4.092381 4.750803 1.9026713 1.509972 3.6921005 3.3509986 6.36372
5.890692 5.645884 4.0473194 5.128669 4.8001356 5.500352 3.4788253 4.18867
3.6099517 4.322652 1.9804617 5.194715 4.4147706 3.2503905 3.8491008 3.3160746
0.04000142 4.9036956 4.616832 4.823457 1.9858842 3.8240528 3.9154768 2.4144092
3.8509903 5.6438875 1.7564888 3.6908574 4.126105 2.8629065 3.7810984 3.6561685
3.984326 4.18823 0.685884 5.831599 3.923965 4.1869574 3.2069662 4.1991806
3.5039456 3.8495073 5.1141768 5.142541 2.0548146 6.0499563 1.1463058 1.3569291
2.6441963 2.8344986 3.5314791 3.6816182 5.5262704 4.11692 4.269002 5.744391
4.6990185 3.8125055 2.6025174 1.6101265 4.644509 1.8480624 2.0436327 2.2814183
3.0219572 3.162567 3.9107807 5.066528 2.7690737 4.184804 1.9826562 5.1092086
5.138519 3.894392 1.9607594 2.7457964 3.791083 4.915063 4.124471 4.8399925
5.249002 5.555378 2.0794878 4.771308 2.688786 3.8221507 3.5786924 1.9300414
4.2715244 2.7772164 2.4450784 4.9464703 2.461653 4.2952247

3.weight f4 [50, 102]
00000000: e8f3 56bf 4a3e 3dbf 6ab0 5fbf f42c 30bf
00000010: 49ef b4bf 7125 fabe c657 16bf 2153 6bbf
00000020: bc69 80be f8ce 6fbf 4681 b9be 52ed dabf
00000030: a286 58bf 0c0f 2dbf a606 1dbf 66c1 f3bf
00000040: 57f2 a7bf 2590 f7bf 3604 d0bf 060d afbf
00000050: 8d57 d3bf 7621 85be 2229 eabf 9f92 71bf
00000060: 6d25 14c0 f2a5 b3bf 67fb 83bf bb64 debf
00000070: 61a9 13bf c2c1 e9bf e049 52bf 06b9 e6bf
00000080: 203e 8fbf 6d78 1fbf 732f 8ebf d803 71bf
00000090: 8d78 cbbf 0d9c dfbf e299 36bf 0080 b8be
000000a0: 1b96 d8bf d5cb 4fbf 323c 95bf 16c8 fcbf
000000b0: c60b 8abf b149 93bf aba6 65bf d559 d9bf
000000c0: f0b2 81bf da38 a8bf 1867 cebf 0979 393e
000000d0: 9101 36bf ff93 febf c0a1 9fbf 5b9b acbf
000000e0: 2b18 6b3d 3551 b8bf fe40 bfbf 21bf aebf
000000f0: defc 01c0 a54f 9abf 3357 42bf 4c13 dabf
00000100: eac6 83bf 9464 62bf 0bb4 8bbf f619 55bd
00000110: 8dd9 c6bf b124 bdbf cbe3 4cbf 474a e4bf
00000120: d5e6 b2bf d417 aabf 4c9f 8bbf aab9 0dc0
00000130: 2509 a1bf 0b8c 01bf 48a8 07c0 f641 57bf
00000140: 482a 67bf b6d4 79bf 37a8 17bf 5f47 d5bf
00000150: e4cd 83bf 023a a4bf 4be0 71bf 30a8 acbf
00000160: 88af 69bf f31e e9bf 5e77 65bf a0d7 d9be
00000170: 6757 39bf 5a0e 48bf e649 9dbf f2e4 dbbf
00000180: 7e45 0ebf 1a91 75bf 1603 b5bf 2d6f a2bf
00000190: 36b4 38bf db31 2bbf 519c e73f ced7 2c3f
000001a0: 0821 3b3f 9d82 073f b690 8d3f 2413 c13f
000001b0: 404e a63f 3c51 af3f d788 d23f 230b 1040
000001c0: 7861 9f3f 0141 5d3f af1d a33f 05d8 f03f
000001d0: 8ac2 943f 6b1e 733f 9a06 6a3f da6d da3f
000001e0: aca3 823f 7a35 a63f faff f93f 83a9 b53f
000001f0: 17e1 ae3f 1d05 c83f 1ebe e93f c4e0 5b3f
00000200: 136d cb3f 2839 723f 9add 0540 cddd 1040
00000210: 0451 ad3f df9c cf3f 7ba4 2140 1009 e53f
00000220: c4dc 873f e3f2 e63e e466 3d3f 0eac e93f
00000230: 14e0 c33f fe2d 673f a4f1 c63f 5444 1740
00000240: 45c4 da3f 9be5 833f 53f8 723f fc3c 983f
00000250: 15d5 c63f de00 fc3f 12e3 da3f 450b cd3f
00000260: fd7b 8c3f 50aa ce3f dbde 4d3e bc5f 863f
00000270: 55d3 483f 6169 7a3f 2fac c13f 1729 983f
00000280: 286e ea3f 53ab 0a40 6959 693f be32 553f
00000290: bdc2 f93f 1c58 c73f b397 a93f f4c0 863f
000002a0: 90d8 fb3f 4afb d03f 9475 b03f 130f a93f
000002b0: 8bb3 ef3f 4e19 9e3f 2907 7a3f 2238 2c40
000002c0: 6f09 bf3f 913d 943f 9774 703f 278c 893f
000002d0: 708a 803f 02e9 a23f 8d50 0240 5ae1 0c40
000002e0: b503 db3e 1682 1040 612c f03f 662a d13f
000002f0: f748 1940 3c1f 0b40 9745 cc3f 6f3a cc3f
00000300: ac2c 943f 2d52 f43f 72cc 9c3f 1ce5 063f
00000310: 4ddf e53f 0a74 c43f 50ca 9d3f 3065 953f
00000320: ab6c 593e 4faf 853f 07ad 8b3f ac29 6c3f
00000330: c7e6 71bf fba4 64be 537e 31bf d478 03bf
00000340: a402 9dbf 5542 50bf a3b4 59bf 1962 aabf
00000350: 48e7 11c0 7794 31be 010d 80be 98d7 b6bf
00000360: b812 9bbf ec48 c6bd 1ffe 79bf 6cd4 95bf
00000370: d0c8 08bf 4c9d d1bf c6f7 9fbf 8fb2 d6bf
00000380: 9440 64bf 56b1 73bf 2351 2cbf 69a2 9cbf
00000390: f6a1 1cc0 192e a8bf fa6a 94bf d3e1 8fbf
000003a0: 37ee a4bf 8286 cbbf 896d b0bf fe79 a1bf
000003b0: b1d5 82bf 2b68 f0bf 0101 973d 2999 d0bf
000003c0: 6a2d e1bf 0083 52bf 89fe 9dbf 7ad2 0fc0
000003d0: 5220 a1be 8ede 4abf e520 8fbf 528c 87bf
000003e0: 0820 a8bf f188 c7bf 45a2 26bf 19e2 cebe
000003f0: 9895 0fbf 03a7 acbf ce65 1dbf 325a 8fbf
-0.8396592 -0.7392317 -0.8737856 -0.68818593 -1.4135524 -0.4885669 -0.5872768 -0.9192372
-0.2508067 -0.93675184 -0.3623144 -1.7103674 -0.84580433 -0.67601085 -0.6133827 -1.9043396
-1.3120831 -1.9340864 -1.6251285 -1.367585 -1.6511093 -0.2600209 -1.8293803 -0.9436435
-2.3147843 -1.4035017 -1.0311097 -1.737449 -0.57680327 -1.8262255 -0.82143974 -1.8025215
-1.1190834 -0.6229313 -1.110823 -0.9414649 -1.5896164 -1.7469498 -0.71328557 -0.36035156
-1.6920809 -0.811704 -1.1658995 -1.9748561 -1.0784843 -1.1506864 -0.8970744 -1.698054
-1.0132732 -1.314235 -1.6125212 0.18112577 -0.7109614 -1.9888915 -1.2471237 -1.3484911
0.057396095 -1.4399782 -1.4941709 -1.3652078 -2.0310588 -1.2055556 -0.75914305 -1.7037139
-1.0295079 -0.8843472 -1.091432 -0.05202671 -1.5535141 -1.4776822 -0.80035084 -1.7835168
-1.3976694 -1.3288522 -1.0907989 -2.214457 -1.2580916 -0.50604314 -2.119646 -0.84085023
-0.9029889 -0.97590196 -0.5924105 -1.6662406 -1.0297208 -1.2830203 -0.9448287 -1.3488827
-0.91283464 -1.821257 -0.89635265 -0.4254732 -0.7239899 -0.781469 -1.2288177 -1.7179244
-0.55574787 -0.9592453 -1.4141567 -1.2690178 -0.7214998 -0.6687295 1.8094579 0.6751679
0.73097277 0.52933675 1.1059787 1.5083966 1.299263 1.3696666 1.644801 2.2506797
1.245162 0.86427313 1.2743434 1.8815924 1.1621869 0.9496829 0.91416323 1.7064774
1.0206199 1.298507 1.9531243 1.4192356 1.3662442 1.562656 1.8261144 0.8588984
1.5892662 0.94618464 2.0916505 2.2635376 1.3540349 1.6219748 2.525664 1.7893391
1.0614247 0.45107183 0.73985124 1.8255632 1.5302758 0.90304554 1.5542493 2.3635454
1.7091147 1.0304445 0.9491016 1.1893611 1.5533777 1.9687765 1.7100546 1.6019064
1.0975338 1.6145725 0.20104544 1.0497966 0.7844747 0.97817045 1.5130671 1.188754
1.8314867 2.1667068 0.91152054 0.8328055 1.9512554 1.5573764 1.324942 1.0527635
1.9675465 1.6326687 1.3785882 1.3207725 1.8726667 1.2351472 0.97667176 2.690926
1.4924754 1.1581289 0.939279 1.0745896 1.0042248 1.2727358 2.0361664 2.2012544
0.42776266 2.2579398 1.8763543 1.6341064 2.3950784 2.1737814 1.5958737 1.5955333
1.1576133 1.9087578 1.2249892 0.52693343 1.7958771 1.5347912 1.2327366 1.1671505
0.2123286 1.0444125 1.0912179 0.92251086 -0.94492763 -0.2232856 -0.6933338 -0.51356244
-1.2266431 -0.81351215 -0.85041255 -1.3311187 -2.2797413 -0.17341791 -0.2500992 -1.4284544
-1.2115088 -0.096818775 -0.97653383 -1.1705451 -0.53431416 -1.6376128 -1.249749 -1.6773242
-0.8916104 -0.9519247 -0.67311305 -1.2237064 -2.4473853 -1.3139068 -1.1595147 -1.1240791
-1.2885197 -1.5900424 -1.3783427 -1.2615354 -1.0221463 -1.878179 0.07373238 -1.6296741
-1.7591984 -0.8223114 -1.2343303 -2.2472215 -0.3146997 -0.7924584 -1.1181914 -1.0589697
-1.3134775 -1.5588666 -0.65091354 -0.40406874 -0.56087637 -1.3488468 -0.61483467 -1.11994

3.bias f4 [50]
00000000: 6bab 57c1 5f70 6441 15e9 5ec1 3443 55c1
00000010: 93e0 5bc1 c6bd 6841 d8d8 6441 f596 59c1
00000020: 4e39 5c41 9744 6341 2b51 5cc1 a9b2 58c1
00000030: fcc2 6341 4971 6241 5280 57c1 047e 6441
00000040: 0497 6441 f0b8 5bc1 e12b 6741 d6d2 5b41
00000050: 4e2b 5bc1 4ae7 59c1 8871 57c1 f5b7 6541
00000060: 52b1 5bc1 187c 6341 5e75 5d41 b524 6241
00000070: 5e8d 5c41 a87a 6541 1d7e 5a41 b9f8 6241
00000080: a362 6341 bed0 5bc1 aa59 6341 e0cf 5ac1
00000090: 34cc 5d41 bd61 6441 9c75 6741 d0e4 5d41
000000a0: 0ba9 5ac1 2ce8 5dc1 f00d 6241 973f 6241
000000b0: fd62 6141 fc9f 6341 f657 6041 51c8 6741
000000c0: 0320 55c1 88ef 6641
-13.47935 14.277434 -13.931905 -13.328907 -13.742328 14.546331 14.30294 -13.599355
13.76399 14.204246 -13.769816 -13.543618 14.235104 14.1526575 -13.468828 14.280766
14.286869 -13.732651 14.448213 13.738974 -13.698072 -13.618967 -13.465218 14.357411
-13.730791 14.217796 13.841154 14.133962 13.784513 14.342445 13.655789 14.185723
14.211581 -13.738462 14.209391 -13.675751 13.862354 14.273862 14.466213 13.868362
-13.66627 -13.869183 14.128403 14.140525 14.086667 14.226559 14.021475 14.486405
-13.320315 14.433479

6.weight f4 [1, 50]
00000000: f854 a2bf 9ff2 d03f 6a8f a2bf 7b28 a8bf
00000010: 5a85 c4bf c344 d73f a68b d83f f27c 9cbf
00000020: 6987 c13f a9a9 b43f 52b4 92bf 57d2 bcbf
00000030: dfad cd3f e262 c53f 7b0c 93bf f032 ca3f
00000040: f329 ca3f a88a c5bf 19e3 dc3f 246f b13f
00000050: c88c 9dbf 3f7a 9fbf e7da a2bf 6c58 c53f
00000060: f527 98bf 66f1 c13f 0b5c d33f bae5 b03f
00000070: 82e3 b23f df0d af3f c213 c43f 83cb ba3f
00000080: 3598 c23f 79c4 b0bf 7075 c33f 9b6c a3bf
00000090: b416 b03f f62a d63f ee0f e03f 108c c23f
000000a0: d234 a5bf d3a2 a8bf 1d32 d73f ff52 d53f
000000b0: 9f20 bc3f 4877 bd3f 71e1 d93f 3936 cf3f
000000c0: 62f9 9cbf 85bf c43f
-1.268218 1.6324042 -1.2700016 -1.3137354 -1.5353196 1.681786 1.6917617 -1.222563
1.5119449 1.4114276 -1.1461279 -1.4751691 1.6068686 1.5420802 -1.1488184 1.5796795
1.5794052 -1.543294 1.7256805 1.3862042 -1.2308588 -1.2459182 -1.2723054 1.5417609
-1.1887194 1.5151794 1.6512464 1.3820107 1.397568 1.3676108 1.531853 1.4593357
1.52027 -1.3809959 1.5270214 -1.2767519 1.3756928 1.6731861 1.7504861 1.5198994
-1.2906744 -1.317469 1.6812168 1.6665953 1.4697455 1.4802027 1.7021924 1.6188422
-1.2263606 1.5370947
