neural-nets/house-price/model.pt (torch_old, 132462 bytes, 5 tensors)

0.weight f4 [102, 270]
-0.9734973 -0.568056 0.64971083 1.5605721 -1.1860894 1.8905767 -0.48249424 -0.2068733
1.3000385 0.5767597 0.1081071 1.8635393 1.2348378 1.2557158 -3.2639425 2.16329
0.41755918 -0.43813306 1.2744819 0.9316134 0.0059106755 -1.6193147 0.401809 -0.7613677
1.1040162 1.5171915 0.5222388 -0.17811 1.1866919 -0.8320783 0.43095183 0.45603034
0.93916273 -0.61850405 0.7821393 0.22077121 0.2751351 -0.28348336 0.53159314 -1.0933067
-4.8399224 0.9093858 -0.048741635 -0.09466063 0.391857 0.10016939 0.020174406 -0.27551967
-2.4271781 1.6581876 0.04482533 -3.590641 -4.8601255 1.457323 1.0614127 2.383141
0.21076955 0.02304902 -0.20176694 -3.2916038 -0.057575956 -4.203474 -3.4912844 -0.053043533
-0.248215 -0.6546895 -0.22234318 -1.6921996 -0.12047835 -5.518516 -4.0698895 -1.4821916
-0.23437369 2.9506288 -0.46846575 0.98073536 0.29863793 -0.5481935 -1.1412042 1.1471703
0.21874578 1.1247482 0.3795142 0.43355185 0.17385717 0.024796672 -0.030354688 0.37668064
-0.3538846 -0.09935453 0.022302365 -0.010779886 -4.1801376 0.2538336 -0.030937945 -4.1033196
3.9423344 -4.798106 -3.3743753 -3.7734077 -3.6884027 -4.8227825 0.060727134 -2.265156
-0.08644819 -0.6954447 -0.16860786 -0.03232634 -3.855468 0.8439067 -3.286166 -4.200801
0.26489612 -0.04839426 -0.002467946 -0.005549703 -0.34249774 0.9630307 -0.00033227098 -3.6977205
-3.8249247 -0.049636446 8.250792 -4.894452 -3.6812906 -3.794423 -4.177717 -3.8816807
-3.450346 0.021580175 -3.9636257 -4.4349723 0.57998717 -4.343379 -1.2732794 0.20968102
-3.692854 0.14020199 -0.476586 -4.221058 -2.705988 0.027508436 0.32017273 0.12842552
-4.798498 -3.831247 1.6764228 0.63356423 -4.529402 -0.94655275 -0.19519548 1.115254
-0.08052162 -3.798354 -0.5102958 -2.967067 -6.5209827 0.1210386 0.93043876 -1.7299974
-4.87237 -0.6313336 0.27323017 0.57480043 1.0795524 -4.2698073 -1.295694 -0.13886271
-0.017147265 1.9211888 -1.2657106 -4.296683 0.768806 0.036904193 0.5473832 0.6785364
-4.213876 -3.7304072 -2.6393309 -0.031153116 -0.034254476 -2.14123 -1.1049074 -4.343733
-1.293964 -4.4920597 1.4652965 -4.3544583 0.5632831 -0.15621902 -0.53479 -4.2664633
-0.9079513 -0.12649307 0.35965747 0.46899667 -0.57595927 -4.291162 0.27290493 0.07450771
0.38587573 -1.3606039 -0.038685106 -4.2905087 3.3290727 -3.108472 -4.249574 -3.3739817
-3.536124 -0.011725031 1.3978379 0.26823714 -3.0824857 -0.009328762 -0.006392084 1.2361739
-0.024854604 -4.2582254 -3.9179544 -4.85929 -0.123426296 -3.4430244 -0.7773847 -1.3612157
-0.97077155 -4.890231 -3.8216448 0.05711941 1.1687771 -0.19215928 -4.07104 -0.28576657
-4.7785206 -0.37863418 0.20091301 1.7332398 -4.2776585 -0.35870248 -4.5339313 -0.55054444
-0.012703582 -4.5035634 -4.174395 0.39295593 -4.1431637 2.4686987 -4.517959 -4.5807633
-3.933063 -3.8273706 3.823443 -4.468639 -1.7071433 0.6212783 -0.007842381 0.6626858
00000000: 1e37 79bf 1e6c 11bf 7353 263f d4c0 c73f
00000010: c7d1 97bf 6bfe f13f 7c09 f7be 98d6 53be
00000020: a967 a63f 86a6 133f 4167 dd3d 7588 ee3f
00000030: 2a0f 9e3f 4cbb a03f 6fe4 50c0 5873 0a40
00000040: 51ca d53e fa52 e0be 3922 a33f 377e 6e3f
00000050: 57ae c13b b445 cfbf e9b9 cd3e fee8 42bf
00000060: 6750 8d3f 5533 c23f 71b1 053f 7862 36be
00000070: 85e5 973f 1503 55bf b8a5 dc3e cf7c e93e
00000080: f86c 703f 4856 1ebf 483a 483f d911 623e
00000090: 82de 8c3e bb24 91be 7d16 083f 79f1 8bbf
000000a0: a5e0 9ac0 82cd 683f 4fa5 47bd 6fdd c1bd
000000b0: 7ba1 c83e 9c25 cd3d cc44 a53c ea10 8dbe
000000c0: e356 1bc0 7e3f d43f c49a 373d 10cd 65c0
000000d0: 2686 9bc0 8f89 ba3f 5fdc 873f 6285 1840
000000e0: f9d3 573e 4cd1 bc3c fe9b 4ebe a3a9 52c0
000000f0: c4d4 6bbd dc82 86c0 3471 5fc0 2d44 59bd
00000100: 132c 7ebe bb99 27bf eead 63be ff99 d8bf
00000110: 5abd f6bd af97 b0c0 893c 82c0 74b8 bdbf
00000120: a8ff 6fbe 1ad7 3c40 beda efbe 7911 7b3f
00000130: 12e7 983e 6956 0cbf fb12 92bf 7ad6 923f
00000140: e5fe 5f3e c0f7 8f3f af4f c23e 82fa dd3e
00000150: 9d07 323e 6422 cb3c 65aa f8bc 49dc c03e
00000160: 5d30 b5be 637a cbbd 73b3 b63c 1e9e 30bc
00000170: b0c3 85c0 7af6 813e 9371 fdbc 654e 83c0
00000180: 354f 7c40 168a 99c0 c4f5 57c0 837f 71c0
00000190: ca0e 6cc0 3c54 9ac0 04bd 783d 51f8 10c0
000001a0: c00b b1bd aa08 32bf 8aa7 2cbe a068 04bd
000001b0: fdbf 76c0 450a 583f 8b50 52c0 f66c 86c0
000001c0: 77a0 873e 0f39 46bd 43bd 21bb 48da b5bb
000001d0: dd5b afbe 2e89 763f a834 aeb9 74a7 6cc0
000001e0: 91cb 74c0 964f 4bbd 3e03 0441 5a9f 9cc0
000001f0: 449a 6bc0 d4d7 72c0 dcaf 85c0 756d 78c0
00000200: 78d2 5cc0 e8c8 b03c 0bac 7dc0 4beb 8dc0
00000210: 0a7a 143f f6fc 8ac0 d2fa a2bf 9fb6 563e
00000220: b857 6cc0 1c91 0f3e 1503 f4be e812 87c0
00000230: e82e 2dc0 5f59 e13c aeed a33e fb81 033e
00000240: 4c8d 99c0 2733 75c0 0695 d63f 4431 223f
00000250: dcf0 90c0 4851 72bf 53e1 47be a5c0 8e3f
00000260: 85e8 a4bd 3b18 73c0 bfa2 02bf 6de4 3dc0
00000270: e4ab d0c0 16e3 f73d 3c31 6e3f 8e70 ddbf
00000280: 74ea 9bc0 149f 21bf d3e4 8b3e 1f26 133f
00000290: c62e 8a3f 43a2 88c0 4dd9 a5bf 0732 0ebe
000002a0: 6c78 8cbc 84e9 f53f ce02 a2bf 6d7e 89c0
000002b0: 78d0 443f da28 173d 4e21 0c3f 90b4 2d3f
000002c0: 12d8 86c0 febe 6ec0 ccea 28c0 d234 ffbc
000002d0: 6c4e 0cbd ea09 09c0 9b6d 8dbf dcff 8ac0
000002e0: 9da0 a5bf f4be 8fc0 d68e bb3f b957 8bc0
000002f0: 5233 103f e1f7 1fbe ffe7 08bf de86 88c0
00000300: 7f6f 68bf 6687 01be 0625 b83e 5520 f03e
00000310: 1172 13bf 3351 89c0 32ba 8b3e 8097 983d
00000320: 8191 c53e 4528 aebf 4674 1ebd d94b 89c0
00000330: 870f 5540 35f1 46c0 83fc 87c0 51ef 57c0
00000340: db4f 62c0 581a 40bc 5aec b23f 6156 893e
00000350: 7247 45c0 aad7 18bc b074 d1bb f23a 9e3f
00000360: e29b cbbc 6243 88c0 c4bf 7ac0 4e7f 9bc0
00000370: edc6 fcbd 835a 5cc0 af02 47bf 513c aebf
00000380: 7c84 78bf c67c 9cc0 d495 74c0 0bf6 693d
00000390: 7d9a 953f 67c5 44be f645 82c0 ff4f 92be
000003a0: a4e9 98c0 57dc c1be 24bc 4d3e cdda dd3f
000003b0: 94e2 88c0 daa7 b7be f715 91c0 7bf0 0cbf
000003c0: af22 50bc 311d 90c0 a594 85c0 8531 c93e
000003d0: cc94 84c0 29ff 1d40 1f93 90c0 9d95 92c0
000003e0: 4eb7 7bc0 a4f3 74c0 4ab3 7440 17ff 8ec0
000003f0: ac83 dabf 180c 1f3f 547d 00bc c7a5 293f

0.bias f4 [102]
4.859448 4.517756 5.3146615 5.4016232 5.841004 3.4957447 4.70935 4.283383
3.7647865 4.1737084 3.2264054 4.04885 5.744438 5.512019 4.406088 6.0263267
5.982164 4.7491817 6.5945826 4.4021273 2.7764597 5.494126 4.3901877 2.6110497
5.2878966 5.3122735 4.8444285 4.705425 4.9263496 5.6217966 5.562489 6.1274557
4.461512 3.458649 5.3338466 6.032212 5.7386503 4.4145617 4.0130825 5.449384
4.6024656 5.840845 5.3544874 4.3817425 3.816087 4.404196 5.503582 3.550503
4.1504254 5.1894126 4.307747 4.5023923 5.35144 3.4063506 4.01574 5.1894474
5.0431943 2.740863 4.35627 5.6719317 4.747536 4.7294016 5.3414235 6.1613483
3.805135 5.118983 4.1523175 5.083405 3.8074691 4.9623194 6.1670647 3.3234346
4.318068 3.7850716 5.591612 3.7622876 4.77785 4.8319097 3.9199317 6.2164564
5.3904886 5.060644 4.4458985 5.2709002 4.5828195 6.1107297 6.4290085 4.441906
3.4817553 6.1715913 3.5280256 5.565566 4.4232054 6.438749 5.7584133 4.255123
4.261159 5.5211735 5.090091 4.8083706 5.605647 4.4070673
00000000: 9980 9b40 7591 9040 b511 aa40 19da ac40
00000010: 81e9 ba40 48ba 5f40 ffb2 9640 7911 8940
00000020: 43f2 7040 058f 8540 6d7d 4e40 2e90 8140
00000030: 70d2 b740 7662 b040 acfe 8c40 abd7 c040
00000040: e36d bf40 4cf9 9740 d206 d340 3ade 8c40
00000050: 84b1 3140 e1cf af40 6b7c 8c40 701b 2740
00000060: 7336 a940 25fe a940 8f05 9b40 d792 9640
00000070: a8a4 9d40 c2e5 b340 e9ff b140 1e14 c440
00000080: b5c4 8e40 815a 5d40 dfae aa40 e107 c140
00000090: 06a3 b740 1744 8d40 2c6b 8040 5b61 ae40
000000a0: 6647 9340 34e8 ba40 f657 ab40 3c37 8c40
000000b0: c53a 7440 2cef 8c40 581d b040 713b 6340
000000c0: 49d0 8440 ab0f a640 10d9 8940 9913 9040
000000d0: ff3e ab40 a601 5a40 f180 8040 f40f a640
000000e0: d961 a140 4d6a 2f40 9066 8b40 7780 b540
000000f0: d1eb 9740 4257 9740 f1ec aa40 c429 c540
00000100: 5587 7340 b5ce a340 c9df 8440 41ab a240
00000110: 93ad 7340 52cb 9e40 9858 c540 27b3 5440
00000120: 9d2d 8a40 9d3e 7240 7cee b240 52c9 7040
00000130: 26e4 9840 019f 9a40 29e0 7a40 36ed c640
00000140: e27e ac40 ccf0 a140 cd44 8e40 37ab a840
00000150: 75a6 9240 198b c340 70ba cd40 1824 8e40
00000160: 14d5 5e40 ad7d c540 2ccb 6140 1e19 b240
00000170: e68a 8d40 3b0a ce40 ec44 b840 f829 8840
00000180: 6a5b 8840 74ad b040 07e2 a240 2cde 9940
00000190: 7661 b340 b206 8d40

3.weight f4 [50, 102]
-8.221121 -9.101231 -8.957766 -8.4547415 -9.190696 -8.6458645 -8.622423 -8.340949
-9.526116 -9.790343 -10.715829 -7.742648 -9.176741 -10.274981 -8.93877 -9.234989
-8.097924 -9.6895895 -8.85735 -8.781643 -10.130071 -8.296899 -9.955808 -9.334275
-9.111382 -10.538031 -8.993449 -9.068539 -9.283498 -8.873075 -9.127702 -8.856693
-8.181295 -9.767998 -9.989018 -9.0198 -10.098868 -9.288391 -9.6889 -9.610979
-7.938901 -8.803989 -9.546755 -9.348484 -9.314361 -9.422321 -10.636798 -8.084482
-9.8504925 -8.755827 -8.936459 -9.925765 -9.726051 -8.933267 -8.470577 -8.078008
-8.568653 -9.513612 -10.522437 -9.058756 -8.987474 -9.7200365 -9.606508 -7.4940844
-9.000361 -9.144135 -9.499874 -10.113168 -8.995951 -9.407367 -8.39778 -8.599896
-9.753869 -8.45055 -7.5605245 -9.560567 -10.4410305 -11.1698675 -8.941865 -7.831936
-8.640593 -8.787683 -10.591609 -10.628899 -8.219637 -9.3036 -9.526763 -8.897941
-8.812735 -9.45098 -8.204696 -9.065381 -9.512016 -7.841856 -8.686806 -9.477769
-8.594245 -8.835388 -7.7927136 -9.448996 -8.101904 -7.7829785 0.64445686 1.7047131
1.7110463 0.572384 1.7948384 1.336408 0.9584546 0.9998518 1.253478 1.0349848
3.0066059 1.2550794 1.2985923 1.6783513 1.4856132 2.1374846 1.0863179 1.3305507
1.32211 1.5117272 1.2767348 1.0248406 2.555272 1.9935637 0.5144589 0.9961506
0.9763624 0.7610179 1.138147 2.3445506 2.1801648 1.3465536 1.3031502 2.0584543
1.3900502 1.252604 1.7485532 1.4905721 1.314567 1.5026438 1.0187751 1.9315691
0.8066845 0.8532996 1.3300923 1.5412369 1.1066103 2.4629533 1.4235325 0.9532353
0.42355925 0.8545413 0.75150126 1.4662367 0.7591333 0.5681443 0.73818195 3.1551907
0.5773248 0.9258056 1.0959113 -0.11594971 0.85515326 1.133951 0.89759743 0.20381898
1.042766 0.09967357 1.1373832 0.45669243 0.6987029 1.4962558 0.92053384 1.2813084
1.08501 1.6560656 0.5880662 1.3301042 1.1179229 2.0303147 0.40498346 1.9564624
1.7694759 0.38305452 1.3337544 1.4331173 1.4009463 1.7021383 0.627223 2.3268874
1.0966172 1.7628224 1.7397339 0.8764813 1.3785717 0.042763464 1.2458961 0.90304244
1.3794321 1.1768451 1.6564095 0.586504 -9.565876 -7.9848585 -9.1174 -9.28768
-8.766053 -6.6348815 -9.6185255 -10.010178 -8.72691 -8.36152 -7.982589 -7.839073
-8.721233 -8.62856 -9.466363 -8.625617 -7.562173 -8.944956 -9.389537 -8.203392
-7.884948 -8.671628 -9.068271 -7.6198177 -8.646123 -8.462818 -8.473512 -9.823347
-8.767426 -8.21099 -7.986139 -8.383967 -8.415045 -6.863348 -8.851558 -8.661568
-9.387271 -7.9492636 -8.226196 -7.968518 -7.8468003 -7.994984 -8.834344 -8.673218
-8.716693 -7.695516 -10.299169 -7.2935815 -9.85422 -8.809585 -7.67491 -9.7881975
00000000: b689 03c1 a49e 11c1 0253 0fc1 9f46 07c1
00000010: 170d 13c1 7655 0ac1 72f5 09c1 8774 05c1
00000020: f96a 18c1 3fa5 1cc1 0974 2bc1 c6c3 f7c0
00000030: eed3 12c1 5266 24c1 3405 0fc1 84c2 13c1
00000040: 1991 01c1 8f08 1bc1 b5b7 0dc1 9c81 0cc1
00000050: c514 22c1 19c0 04c1 fd4a 1fc1 3159 15c1
00000060: 38c8 11c1 c69b 28c1 2be5 0fc1 bc18 11c1
00000070: 3589 14c1 1df8 0dc1 110b 12c1 04b5 0dc1
00000080: 96e6 02c1 b849 1cc1 05d3 1fc1 1a51 10c1
00000090: f794 21c1 409d 14c1 bc05 1bc1 92c6 19c1
000000a0: 7a0b fec0 24dd 0cc1 82bf 18c1 6493 15c1
000000b0: 9f07 15c1 d4c1 16c1 5330 2ac1 0a5a 01c1
000000c0: 9e9b 1dc1 de17 0cc1 bcfb 0ec1 efcf 1ec1
000000d0: e89d 1bc1 a9ee 0ec1 7c87 07c1 853f 01c1
000000e0: 3419 09c1 c137 18c1 e75b 28c1 aaf0 10c1
000000f0: b2cc 0fc1 4585 1bc1 42b4 19c1 8acf efc0
00000100: 7b01 10c1 614e 12c1 7cff 17c1 89cf 21c1
00000110: 6aef 0fc1 9384 16c1 4f5d 06c1 2d99 09c1
00000120: d90f 1cc1 7435 07c1 d1ef f1c0 15f8 18c1
00000130: 760e 27c1 c7b7 32c1 e111 0fc1 389f fac0
00000140: de3f 0ac1 599a 0cc1 3b77 29c1 f80f 2ac1
00000150: a283 03c1 8cdb 14c1 9f6d 18c1 f75d 0ec1
00000160: f600 0dc1 3737 17c1 6f46 03c1 cd0b 11c1
00000170: 3831 18c1 7cf0 fac0 28fd 0ac1 f1a4 17c1
00000180: 0782 09c1 c05d 0dc1 e95d f9c0 162f 17c1
00000190: 66a1 01c1 290e f9c0 20fb 243f 0a34 da3f
000001a0: 9103 db3f c287 123f 44bd e53f 6b0f ab3f
000001b0: 485d 753f 4af6 7f3f f871 a03f 627a 843f
000001c0: 3b6c 4040 71a6 a03f 4638 a63f 37d4 d63f
000001d0: 9328 be3f 8ccc 0840 770c 8b3f 7c4f aa3f
000001e0: e73a a93f 4780 c13f 0c6c a33f fa2d 833f
000001f0: 9489 2340 182d ff3f 94b3 033f ba03 7f3f
00000200: e3f2 793f 12d2 423f cdae 913f 1e0d 1640
00000210: d287 0b40 de5b ac3f a0cd a63f b7bd 0340
00000220: 2aed b13f 5455 a03f 97d0 df3f 11cb be3f
00000230: bb43 a83f a256 c03f 3967 823f a83d f73f
00000240: e082 4e3f d871 5a3f 7740 aa3f 4047 c53f
00000250: 68a5 8d3f 07a1 1d40 5036 b63f 3b07 743f
00000260: c2dc d83e 38c3 5a3f 6362 403f a5ad bb3f
00000270: 8f56 423f e871 113f 7ef9 3c3f a5ee 4940
00000280: 8fcb 133f 9901 6d3f d246 8c3f 0b77 edbd
00000290: 53eb 5a3f 4e25 913f f2c8 653f ecb5 503e
000002a0: 5b79 853f a821 cc3d c695 913f 97d3 e93e
000002b0: 31de 323f 4f85 bf3f 1ba8 6b3f ea01 a43f
000002c0: 9ce1 8a3f f5f9 d33f 828b 163f db40 aa3f
000002d0: 1918 8f3f adf0 0140 fe59 cf3e 5c6d fa3f
000002e0: 307e e23f b91f c43e 77b8 aa3f 6370 b73f
000002f0: 3552 b33f abdf d93f b091 203f b9eb 1440
00000300: f45d 8c3f 2aa4 e13f 9aaf de3f 1461 603f
00000310: 0a75 b03f be28 2f3d 8679 9f3f ca2d 673f
00000320: 3b91 b03f dca2 963f 3a05 d43f 2025 163f
00000330: d40d 19c1 f683 ffc0 dfe0 11c1 569a 14c1
00000340: c141 0cc1 f350 d4c0 7be5 19c1 b029 20c1
00000350: 6ca1 0bc1 c9c8 05c1 5e71 ffc0 b0d9 fac0
00000360: 2c8a 0bc1 950e 0ac1 3976 17c1 8702 0ac1
00000370: 52fd f1c0 8a1e 0fc1 8b3b 16c1 1841 03c1
00000380: 7e51 fcc0 fdbe 0ac1 a317 11c1 8cd5 f3c0
00000390: 8556 0ac1 b467 07c1 8193 07c1 6e2c 1dc1
000003a0: 6047 0cc1 3760 03c1 738e ffc0 bb24 06c1
000003b0: 06a4 06c1 8ca0 dbc0 fb9f 0dc1 c895 0ac1
000003c0: 4332 16c1 5e60 fec0 809e 03c1 19fe fec0
000003d0: fd18 fbc0 e9d6 ffc0 7959 0dc1 80c5 0ac1
000003e0: 9377 0bc1 ab41 f6c0 65c9 24c1 0565 e9c0
000003f0: e3aa 1dc1 0ff4 0cc1 dd98 f5c0 759c 1cc1

3.bias f4 [50]
-36.69665 19.556185 -37.84979 -38.081367 19.320398 -38.99687 -28.88347 -32.678253
18.851562 19.680357 -35.702026 19.130966 19.37605 20.001598 19.87711 19.90365
19.601715 -36.552124 -38.565426 -34.244255 19.68579 18.96792 19.549814 19.2439
19.81829 -40.27333 19.65823 19.884085 19.394753 -39.72897 19.559055 19.52113
19.77435 -33.4961 -37.10429 -33.37265 20.01816 19.294588 -33.13906 18.931482
19.411186 19.914408 19.402079 19.267235 20.000061 -34.916557 -35.591675 -34.80468
-34.147686 19.43318
00000000: 5fc9 12c2 1173 9c41 2f66 17c2 5253 18c2
00000010: 2d90 9a41 cbfc 1bc2 5911 e7c1 88b6 02c2
00000020: 00d0 9641 5f71 9d41 e0ce 0ec2 380c 9941
00000030: 2702 9b41 4603 a041 5204 9f41 ad3a 9f41
00000040: 50d0 9c41 6035 12c2 ff42 1ac2 1efa 08c2
00000050: 7f7c 9d41 4dbe 9741 0566 9c41 82f3 9941
00000060: dc8b 9e41 e417 21c2 0e44 9d41 9b12 9f41
00000070: 7428 9b41 77ea 1ec2 f278 9c41 462b 9c41
00000080: de31 9e41 02fc 05c2 cb6a 14c2 987d 05c2
00000090: 3125 a041 515b 9a41 668e 04c2 ad73 9741
000000a0: 1c4a 9b41 b550 9f41 7537 9b41 4c23 9a41
000000b0: 2000 a041 8eaa 0bc2 e05d 0ec2 fe37 0bc2
000000c0: 3b97 08c2 2777 9b41

6.weight f4 [1, 50]
-15.388726 1.3921738 -14.376827 -14.165803 1.2768681 -14.7150755 -14.538379 -14.591089
1.2115738 1.1346551 -14.075972 1.1826771 1.1537064 1.1697495 1.2359593 1.2398266
1.3003435 -14.286851 -14.503876 -15.076233 1.205221 1.1262285 1.2356151 1.1994401
1.2117529 -14.96284 1.2723556 1.253877 1.1060318 -14.626982 1.1188561 1.0346099
1.0951822 -14.6546 -14.445501 -14.537239 1.2936114 1.2199547 -14.740468 1.0278739
1.2485497 1.1995537 1.2742367 1.222916 1.2011114 -14.960925 -14.57682 -14.2985525
-14.043062 1.2823526
00000000: 3938 76c1 c032 b23f 7c07 66c1 21a7 62c1
00000010: 6a70 a33f f370 6bc1 339d 68c1 1a75 69c1
00000020: da14 9b3f 613c 913f 2e37 61c1 f761 973f
00000030: a7ac 933f 5aba 953f ea33 9e3f a3b2 9e3f
00000040: a871 a63f f196 64c1 e00f 68c1 4038 71c1
00000050: af44 9a3f 4128 903f a328 9e3f 4187 993f
00000060: b81a 9b3f cb67 6fc1 8cdc a23f 0b7f a03f
00000070: 7392 8d3f 1e08 6ac1 ad36 8f3f 196e 843f
00000080: ee2e 8c3f 3e79 6ac1 c620 67c1 8898 68c1
00000090: 0f95 a53f 7a27 9c3f f5d8 6bc1 5f91 833f
000000a0: 7ad0 9f3f fa8a 993f 301a a33f 8388 9c3f
000000b0: 05be 993f f35f 6fc1 a83a 69c1 dfc6 64c1
000000c0: 62b0 60c1 2124 a43f
